exporting_model/models/liteModel/model_quantized.tflite (tflite, 606808 bytes, 44 tensors)

arith.constant3 f4 [64]
-0.03013602 -0.10562781 -0.041609604 0.03252807 0.063645326 0.11935969 0.01774545 0.016261201
0.008181737 -0.061975665 -0.033257723 0.12070584 -0.020477198 0.13013938 -0.034758996 0.012381892
-0.12248488 0.005128378 -0.052448932 -0.08369312 0.07844811 -0.044457205 0.034050144 -0.091111615
0.07605506 0.05569337 0.08310975 0.101543866 0.027436467 0.052630186 -0.06814584 0.054297157
0.017970717 0.021531526 -0.008409256 0.00421706 -0.0050588506 -0.0723699 -0.009139014 -0.017290205
0.13200016 0.02638544 0.017058088 0.035866316 0.005350749 0.017527528 -0.10587677 -0.020631323
-0.10476059 -0.044619102 0.04217616 -0.093508594 -0.078050405 0.06978997 -0.045945164 -0.0671134
0.009191582 -0.0025631187 -0.013132608 0.019958545 0.05991515 0.0030509525 0.005225677 0.06420796
00000000: d1df f6bc 6553 d8bd d56e 2abd 273c 053d
00000010: 7b58 823d da72 f43d e85e 913c 3636 853c
00000020: b10c 063c 32da 7dbd 4039 08bd a034 f73d
00000030: ccbf a7bc 4243 053e 735f 0ebd 6bdd 4a3c
00000040: 5ad9 fabd f40b a83b b1d4 56bd 4c67 abbd
00000050: 67a9 a03d c218 36bd 2a78 0b3d ba98 babd
00000060: c1c2 9b3d bb1e 643d 7235 aa3d 3bf6 cf3d
00000070: 71c2 e03c c092 573d 0c90 8bbd b266 5e3d
00000080: 5337 933c e262 b03c fac6 09bc 432f 8a3b
00000090: b7c4 a5bb ac36 94bd cebb 15bc 30a4 8dbc
000000a0: 0d2b 073e 4726 d83c 67bd 8b3c 8fe8 123d
000000b0: 5655 af3b e495 8f3c ecd5 d8bd 0503 a9bc
000000c0: b88c d6bd 85c2 36bd e9c0 2c3d 6f81 bfbd
000000d0: e4d8 9fbd 0bee 8e3d ff30 3cbd c072 89bd
000000e0: 4a98 163c fff9 27bb 262a 57bc 1a80 a33c
000000f0: 9769 753d 7df2 473b 283c ab3b 777f 833d

arith.constant4 f4 [64]
-0.06501576 0.017057143 -0.0040290253 0.07238247 0.019367639 0.19290315 0.06150893 0.10486243
0.010089208 0.02171709 -0.11404967 -0.041283824 0.027929772 -0.054142848 -0.035143655 -0.0018842879
-0.009696807 0.030404218 -0.06809005 0.065236434 0.016215857 0.033383723 -0.047419406 0.009756214
0.07864578 -0.05465692 -0.028283875 0.085091926 -0.008702081 -0.0050921068 0.080455415 0.06214816
0.020885672 -0.06408834 0.025511967 0.027453005 -0.1621149 0.039045352 -0.03984345 0.039105255
0.05604501 0.066592105 0.058477208 0.0638286 0.04082072 0.008874395 0.033325225 -0.0016621841
0.07499681 -0.057514377 -0.03983655 0.046106108 0.05668083 -0.09761066 -0.007410578 0.019182926
0.03456449 -0.009288835 -0.057959583 -0.0027511432 -0.008519341 -0.03897524 0.0763734 -0.015271166
00000000: fc26 85bd 6cbb 8b3c ea05 84bb 433d 943d
00000010: e2a8 9e3c 6788 453e caf0 7b3d 1dc2 d63d
00000020: 354d 253c 0ae8 b13c e092 e9bd 3a19 29bd
00000030: facc e43c e4c4 5dbd cbf2 0fbd 36fa f6ba
00000040: 5bdf 1ebc 4412 f93c cc72 8bbd ae9a 853d
00000050: 1ed7 843c 5fbd 083d da3a 42bd 87d8 1f3c
00000060: 0a11 a13d efdf 5fbd 96b3 e7bc ad44 ae3d
00000070: 2c93 0ebc b0db a6bb cfc5 a43d 128f 7e3d
00000080: 6e18 ab3c bf40 83bd 79fe d03c 20e5 e03c
00000090: 7301 26be 05ee 1f3d e332 23bd d52c 203d
000000a0: 748f 653d 7161 883d cc85 6f3d 92b8 823d
000000b0: a133 273d e965 113c 0880 083d a5dd d9ba
000000c0: ed97 993d 3294 6bbd a62b 23bd c2d9 3c3d
000000d0: 282a 683d 19e8 c7bd 6fd4 f2bb 8325 9d3c
000000e0: 7f93 0d3d 3330 18bc 0767 6dbd 864c 34bb
000000f0: b594 0bbc 80a4 1fbd a869 9c3d ea33 7abc

arith.constant5 f4 [64]
0.9937496 0.89825785 0.9644461 0.957734 0.98499274 1.100004 1.017681 0.9673377
1.0471447 0.9406853 0.9833851 1.318827 0.9645192 1.0105952 0.9945265 0.97204363
0.91890216 0.9883165 0.9362578 0.921327 1.0172886 0.9627682 1.0607071 0.8553588
1.0737256 1.0621967 1.0419916 1.0815862 0.9361673 1.0677745 0.9540854 1.0501146
1.0017257 1.033018 1.0310719 0.99299556 0.9550968 0.891716 0.9693089 0.8794435
1.0920137 1.0578858 1.0191253 1.029745 1.0065814 1.068682 0.874981 0.9270168
0.8886527 0.9313748 0.9680327 0.89909124 0.9125431 1.0743215 0.9354313 0.9777883
1.0763942 0.97755927 1.0489639 1.0516217 1.0916297 0.9554657 0.999521 1.1043569
00000000: 6066 7e3f 3af4 653f f1e5 763f 0e2e 753f
00000010: 7c28 7c3f eecc 8c3f 5f43 823f 72a3 773f
00000020: d608 863f c0d0 703f 20bf 7b3f 53cf a83f
00000030: bbea 763f 2f5b 813f 4a99 7e3f dad7 783f
00000040: 2c3d 6b3f 4f02 7d3f 97ae 6f3f 16dc 6b3f
00000050: 8336 823f fa77 763f 40c5 873f cbf8 5a3f
00000060: d76f 893f 10f6 873f fb5f 853f 6b71 8a3f
00000070: a9a8 6f3f d6ac 883f f13e 743f 286a 863f
00000080: 8c38 803f ef39 843f 2afa 833f f534 7e3f
00000090: 3981 743f 8047 643f a124 783f 3623 613f
000000a0: 1bc7 8b3f cd68 873f b372 823f afce 833f
000000b0: a9d7 803f 92ca 883f c1fe 5f3f f950 6d3f
000000c0: be7e 633f 946e 6e3f fed0 773f d82a 663f
000000d0: 6d9c 693f 5e83 893f 6d78 6f3f 5650 7a3f
000000e0: 49c7 893f 5341 7a3f 7344 863f 8a9b 863f
000000f0: 86ba 8b3f 6699 743f 9ce0 7f3f 915b 8d3f

arith.constant6 f4 [64]
-0.03676809 -0.1303179 -0.05830064 -0.010071936 0.023529202 0.052021436 0.0031029198 0.0035742023
0.0072612762 -0.06775391 -0.06749624 0.040957477 -0.038143072 0.012561686 -0.011126663 -0.032920122
-0.11371855 0.004585803 -0.0023975435 -0.18551055 -0.009934446 -0.03205658 0.018109713 -0.15868504
0.041226782 -0.012031687 0.014630041 -0.109557144 -0.0008475305 0.021731364 -0.10330006 0.0293711
-0.054345813 -0.0017134954 -0.053752962 0.010560348 -0.044289485 -0.094373986 -0.055108983 -0.06793959
0.043859363 -0.005698588 -0.0108275525 -0.097690314 -0.031852745 -0.04258957 -0.13035671 -0.05294335
-0.12011659 -0.0099959215 -0.012274908 -0.097606696 -0.100784995 0.056725733 -0.05867328 -0.08187179
-0.1000102 -0.068863966 0.017013088 -0.004546906 0.038386356 -0.03083623 -0.0521585 0.004679475
00000000: 239a 16bd 0e72 05be a7cc 6ebd c304 25bc
00000010: 50c0 c03c 6e14 553d 5b5a 4b3b 2a3d 6a3b
00000020: 00f0 ed3b 90c2 8abd 783b 8abd 07c3 273d
00000030: e93b 1cbd 88cf 4d3c 9b4c 36bc 40d7 06bd
00000040: 45e5 e8bd 8144 963b 1b20 1dbb 7af6 3dbe
00000050: 16c4 22bc c34d 03bd d25a 943c 557e 22be
00000060: 6add 283d 8e20 45bc d7b2 6f3c 7f5f e0bd
00000070: cf2c 5eba f905 b23c fb8e d3bd a99b f03c
00000080: b799 5ebd 5d97 e0ba 112c 5cbd 4f05 2d3c
00000090: e468 35bd 2647 c1bd f5b9 61bd e923 8bbd
000000a0: e0a5 333d 39bb babb 0c66 31bc dc11 c8bd
000000b0: 0678 02bd 6772 2ebd 3b7c 05be 20db 58bd
000000c0: b0ff f5bd efc5 23bc b21c 49bc 05e6 c7bd
000000d0: 5d68 cebd 3e59 683d 6553 70bd 66ac a7bd
000000e0: 26d2 ccbd 8d08 8dbd 085f 8b3c 36fe 94bb
000000f0: 033b 1d3d 439c fcbc 27a4 55bd 4856 993b

arith.constant7 f4 [256]
-0.17596711 -0.13192132 -0.11159082 -0.13523498 -0.10700198 -0.26010352 -0.09832384 -0.18632446
-0.18647298 -0.25992718 -0.11311056 -0.114594474 -0.18697588 -0.09452023 -0.20895222 -0.06430107
-0.16211078 -0.24867062 -0.041928045 -0.03443014 -0.35412678 -0.20004846 -0.19166137 -0.12560454
-0.24457076 -0.37338573 -0.30221283 -0.1720991 -0.25625837 -0.15609103 -0.055604327 -0.08958008
-0.3362102 -0.26072362 -0.061077423 -0.2626352 0.0451886 -0.122866504 -0.2585194 -0.0383293
-0.06395997 -0.10168438 -0.16198319 -0.079472765 -0.14437024 -0.17064679 -0.18583117 -0.16462405
-0.10011924 -0.056308307 -0.004920708 -0.26047978 -0.27697134 -0.10373751 -0.21663007 -0.1204641
-0.22457258 -0.041424062 -0.22968988 -0.06698402 -0.21187405 -0.10928869 -0.179205 -0.25449732
-0.18093072 -0.17073976 -0.3211399 -0.11425572 -0.15148167 -0.115569964 -0.3023293 -0.150675
-0.15519327 -0.19888921 -0.13485982 -0.102233306 -0.088074625 -0.14714646 -0.2319015 -0.0876359
0.031001663 -0.22659925 -0.11992223 -0.20780434 -0.22018489 -0.10384097 -0.13903071 -0.2632071
-0.23467039 -0.24237776 -0.17098524 -0.23369816 -0.15596013 -0.0047185407 0.047531083 -0.12464971
-0.11594909 -0.113931835 -0.28816602 -0.06494818 -0.06460075 -0.2247424 -0.3109102 -0.22504832
-0.13779533 -0.1722755 -0.041598342 -0.10818686 -0.047159087 -0.051087905 0.012383375 -0.25472167
-0.0426161 -0.24670409 -0.14942667 -0.078245044 -0.21124937 -0.14946626 -0.31841648 -0.047504988
-0.06702798 -0.2887555 -0.24512851 -0.117079854 -0.15862347 -0.2558706 -0.13929017 -0.22659287
-0.09518175 -0.18012717 -0.20548265 -0.04455802 -0.03475141 -0.17286292 -0.19330533 -0.16897509
-0.09179297 -0.21386653 -0.08632684 -0.19596162 -0.29098994 -0.09690813 -0.042757716 -0.13286631
-0.031030534 -0.16998026 -0.23634139 -0.08789093 -0.08586037 0.2040406 -0.038242426 -0.27437285
-0.1823104 -0.039109323 -0.094407484 -0.07053288 -0.2752146 -0.17157488 0.053679172 -0.1601042
-0.07362618 -0.102181345 -0.16188696 0.0005295228 -0.22921117 -0.17241727 -0.10031546 -0.13132586
-0.12085132 -0.055307135 -0.2589167 -0.2981528 -0.25531793 -0.12732455 -0.1558852 -0.15782848
-0.29364496 -0.0520387 -0.32205138 -0.021933114 -0.18858454 -0.1965889 -0.072102346 -0.20558023
-0.19400336 -0.17365411 -0.10649648 -0.28959304 -0.21346891 -0.22948124 -0.15029275 -0.12399956
-0.10471301 -0.16957688 -0.21671298 -0.12765133 -0.18875204 -0.106547736 -0.055050228 -0.32561046
-0.2398081 -0.08879891 -0.11446776 -0.15941931 -0.10228677 -0.21945384 -0.14366873 -0.30814913
-0.31183133 -0.010313571 -0.25226098 -0.21667823 -0.22874069 -0.25094765 -0.36753792 -0.117274374
-0.047732573 -0.10905794 -0.041211832 -0.026767978 -0.14418836 -0.2203451 -0.08985955 -0.016916236
-0.23595744 -0.09116348 -0.28170374 -0.21026298 -0.17447136 -0.006555253 -0.17763083 -0.22646534
-0.12735413 -0.1602456 -0.17178987 -0.06356466 -0.14082234 -0.1343686 -0.05575626 -0.14919136
-0.2879964 -0.13743326 -0.22568336 -0.32045382 -0.20661126 -0.14928399 -0.22914071 -0.22741207
-0.2847335 0.034047913 -0.25180903 0.061696902 -0.2533954 -0.07974852 -0.08017859 -0.07952452
00000000: b930 34be 6216 07be ba89 e4bd 0a7b 0abe
00000010: db23 dbbd 4a2c 85be 025e c9bd d7cb 3ebe
00000020: c6f2 3ebe 2d15 85be 82a6 e7bd 82b0 eabd
00000030: 9b76 3fbe d393 c1bd 92f7 55be 48b0 83bd
00000040: 5e00 26be 83a3 7ebe bebc 2bbd 9e06 0dbd
00000050: 1b50 b5be 81d9 4cbe e142 44be 7a9e 00be
00000060: c270 7abe 6a2c bfbe a4bb 9abe bf3a 30be
00000070: 4c34 83be 54d6 1fbe 5dc1 63bd c375 b7bd
00000080: be23 acbe 917d 85be 522c 7abd 1f78 86be
00000090: ae17 393d 6fa1 fbbd a85c 84be 2fff 1cbd
000000a0: 72fd 82bd e63f d0bd ecde 25be 9ec2 a2bd
000000b0: cbd5 13be 08be 2ebe 874a 3ebe 3593 28be
000000c0: 510b cdbd 8aa3 66bd e43d a1bb 9b5d 85be
000000d0: 30cf 8dbe 5574 d4bd 46d4 5dbe e2b5 f6bd
000000e0: 5bf6 65be 47ac 29bd d333 6bbe eb2e 89bd
000000f0: 83f5 58be c0d2 dfbd 8481 37be 794d 82be
00000100: e745 39be 67d6 2ebe 736c a4be e7fe e9bd
00000110: 031e 1bbe f2af ecbd e8ca 9abe 8c4a 1abe
00000120: fcea 1ebe 9da9 4bbe b118 0abe b25f d1bd
00000130: 7860 b4bd 90ad 16be 9677 6dbe 737a b3bd
00000140: 33f7 fd3c a209 68be c999 f5bd a9ca 54be
00000150: 2678 61be 93aa d4bd 115e 0ebe 15c3 86be
00000160: 6f4d 70be e031 78be c116 2fbe 924e 6fbe
00000170: 03b4 1fbe fd9d 9abb f4af 423d 5948 ffbd
00000180: b776 edbd 1855 e9bd 7f8a 93be 8d03 85bd
00000190: 664d 84bd df22 66be 9f2f 9fbe 1173 66be
000001a0: 381a 0dbe fd68 30be 0663 2abd 1391 ddbd
000001b0: e329 41bd 8d41 51bd a4e3 4a3c e16a 82be
000001c0: 388e 2ebd ff9f 7cbe 4e03 19be f03e a0bd
000001d0: c151 58be af0d 19be 7c07 a3be 9794 42bd
000001e0: f745 89bd c3d7 93be f802 7bbe 90c7 efbd
000001f0: 316e 22be 7901 83be 15a2 0ebe f607 68be
00000200: a6ee c2bd 4273 38be 0b6a 52be 7882 36bd
00000210: 7f57 0ebd fa02 31be d5f1 45be ce07 2dbe
00000220: f4fd bbbd d4ff 5abe 20cc b0bd 2aaa 48be
00000230: a2fc 94be c577 c6bd b722 2fbd 1b0e 08be
00000240: bf33 febc 4e0f 2ebe 7a03 72be 2900 b4bd
00000250: 90d7 afbd 05f0 503e 17a4 1cbd 997a 8cbe
00000260: 94af 3abe 1931 20bd b658 c1bd 8b73 90bd
00000270: eee8 8cbe 53b1 2fbe b1de 5b3d 5bf2 23be
00000280: 53c9 96bd 7444 d1bd b2c5 25be accf 0a3a
00000290: 55b6 6abe 278e 30be 3172 cdbd 497a 06be
000002a0: e680 f7bd bc89 62bd bb90 84be 7ca7 98be
000002b0: 08b9 82be 5e61 02be 5fa0 1fbe ca9d 21be
000002c0: a258 96be 8826 55bd ebe3 a4be 13ad b3bc
000002d0: 4e1c 41be 9a4e 49be 65aa 93bd a083 52be
000002e0: d1a8 46be 62d2 31be d41a dabd 8a45 94be
000002f0: 9897 5abe 21fd 6abe 58e6 19be 7bf3 fdbd
00000300: c673 d6bd 90a5 2dbe 02ea 5dbe 08b7 02be
00000310: 3748 41be b335 dabd 597c 61bd 6ab6 a6be
00000320: 4190 75be 34dc b5bd 136e eabd d13e 23be
00000330: ba7b d1bd 82b8 60be e51d 13be b9c5 9dbe
00000340: 5ba8 9fbe 41fa 28bc 5a28 81be e6e0 5dbe
00000350: 003b 6abe 367c 80be ee2d bcbe 8c2d f0bd
00000360: 3b83 43bd c559 dfbd bdcd 28bd 8548 dbbc
00000370: 1da6 13be 25a2 61be 4908 b8bd eb93 8abc
00000380: d49e 71be ebb3 babd 793b 90be 2e4f 57be
00000390: 9fa8 32be 73cd d6bb dbe4 35be 88e6 67be
000003a0: 1f69 02be 6c17 24be afe9 2fbe 302e 82bd
000003b0: bb33 10be ec97 09be ad60 64bd 9fc5 18be
000003c0: 4474 93be 4ebb 0cbe 8a19 67be 8612 a4be
000003d0: e791 53be e7dd 18be dda3 6abe b6de 68be
000003e0: 97c8 91be d375 0b3d 1ded 80be e4b5 7c3d
000003f0: 0bbd 81be 3153 a3bd ac34 a4bd c0dd a2bd

arith.constant8 f4 [256]
0.0072154393 0.09565468 0.016797798 -0.01737159 0.0075435992 -0.07065485 -0.017464494 -0.046567522
0.08607867 0.0741238 -0.03581154 -0.028746204 0.076085195 -0.017325418 -0.057037756 0.04457175
-0.0045769955 0.04033777 0.00050676364 0.04561204 0.026777789 -0.060278684 0.034715943 0.044734232
0.07116438 0.06430213 -0.0062765493 -0.023223868 0.045225356 -0.0985029 -0.04550862 0.0052040666
-0.047014877 0.0037520453 -0.019608906 0.13432021 -0.040281937 -0.003971802 -0.022855433 0.12025918
-0.024787977 -0.00379477 -0.0315866 -0.059537884 0.018413424 0.0344215 -0.043787688 0.00054269517
-0.00086110213 -0.008624776 0.008427108 -0.018075902 -0.06108584 0.0018399949 0.04254136 -0.01705875
-0.028333465 0.092816725 0.03394313 -0.008098289 -0.07842026 -0.05886699 0.032685194 0.024544746
-0.008751166 -0.062712334 0.060284086 -0.101923496 -0.07388394 0.08913484 0.09367899 0.00803287
0.05904837 -0.029625334 -0.04890388 0.011355936 -0.0120354 -0.041599184 -0.047330502 -0.03479608
0.068820804 0.06689465 -0.12954323 -0.0006423667 0.015501608 -0.04072017 0.028039197 0.019457541
0.081600055 -0.013047995 0.033496834 0.04971553 0.00993998 0.023925832 -0.0036471086 0.01178689
-0.08235964 0.058562685 0.074140094 -0.03896752 -0.024480188 0.017923437 0.0048370576 -0.041861102
0.045689695 -0.03829406 0.041072503 0.025951244 -0.04870298 0.057278603 -0.0016404801 -0.06457236
0.03508231 0.06259175 -0.046044704 0.011147054 -0.031592824 -0.02740649 0.05603404 -0.07110852
0.005040539 0.040984236 -0.0705746 -0.000100631005 0.04283303 -0.0058811367 0.053733304 0.0573448
0.012669291 -0.040284026 0.028193263 0.099124886 0.09990397 0.005930648 0.0065434235 0.02855634
0.03582535 0.013002031 -0.0155561175 -0.03939894 0.029520161 0.0021151854 0.013010496 -0.02048691
0.026227875 0.0032660344 0.030182818 -0.042901043 -0.03179327 0.024089323 0.06072637 0.011853044
-0.026855864 0.04694285 0.055555426 -0.09364997 0.024748415 0.0024798117 0.02510284 -0.032256816
0.00092356495 0.06608534 0.0029639301 -0.04336566 0.06228332 -0.052222133 0.009520552 0.057834093
-0.009993015 0.09874749 -0.027227039 -0.07833754 0.037332125 0.062143568 0.041447394 -0.058805324
0.03647849 -0.035701357 -0.007371035 0.025343692 -0.007377757 0.053564005 0.064477324 -0.027030485
0.008671212 0.023317877 -0.05191061 -0.0057057473 -0.09026683 -0.015065971 0.056580245 0.026400287
-0.0063365563 -0.05714927 0.046338726 -0.0145437205 -0.028363066 0.027148541 -0.0018151178 0.047154922
-0.08991496 0.016940013 0.015791783 -0.007174024 0.050941378 0.039949402 -0.08115361 0.016471494
-0.0013384167 0.006643476 0.0064337393 -0.0037792602 -0.059756335 -0.0019271853 -0.05855861 0.007953405
-0.020687267 -0.034411073 0.04406005 -0.0041428804 -0.007299455 -0.0148126045 0.0034038161 -0.05083589
0.057827946 -3.6580925e-05 -0.026980866 0.02130177 -0.07719076 -0.011376133 -0.048200566 -0.03249146
0.004420051 -0.0857801 -0.060188856 0.024412325 0.020033259 0.039494265 -0.019110205 -0.0047752485
0.016778296 -0.02809349 0.012741648 0.014876308 0.02189891 0.0431805 0.079070024 -0.07777096
-0.02227427 -0.009196351 -0.009206782 -0.01693381 0.006531492 0.04282956 0.048652094 -0.027409537
00000000: 7e6f ec3b 9ae6 c33d 899b 893c dd4e 8ebc
00000010: 4c30 f73b 7db3 90bd b311 8fbc 96bd 3ebd
00000020: 044a b03d 38ce 973d 1faf 12bd 297d ebbc
00000030: 8ed2 9b3d 09ee 8dbc 6ca0 69bd de90 363d
00000040: 9ffa 95bb 3839 253d 55d8 043a b1d3 3a3d
00000050: 185d db3c c8e6 76bd 4e32 0e3d 3e3b 373d
00000060: a1be 913d d6b0 833d 83ab cdbb fb3f bebc
00000070: 393e 393d e3bb c9bd 3f67 3abd e086 aa3b
00000080: ac92 40bd e0e4 753b dba2 a0bc 3d8b 093e
00000090: acfe 24bd e425 82bb 513b bbbc 724a f63d
000000a0: 2810 cbbc adb1 78bb f360 01bd ffdd 73bd
000000b0: c0d7 963c 8ffd 0c3d b85a 33bd a843 0e3a
000000c0: 96bb 61ba ef4e 0dbc da11 0a3c ea13 94bc
000000d0: 2535 7abd fc2b f13a d93f 2e3d cbbe 8bbc
000000e0: 951b e8bc b216 be3d f407 0b3d b0ae 04bc
000000f0: cd9a a0bd 831e 71bd e9e0 053d 1012 c93c
00000100: 0d61 0fbc 536f 80bd 72ec 763d 44bd d0bd
00000110: 7750 97bd 548c b63d c5da bf3d 4c9c 033c
00000120: b4dc 713d d4b0 f2bc 6f4f 48bd 3f0e 3a3c
00000130: 2030 45bc e863 2abd a1dd 41bd 5686 0ebd
00000140: ecf1 8c3d 1000 893d fba6 04be 8064 28ba
00000150: 75fa 7d3c 31ca 26bd 75b2 e53c 6c65 9f3c
00000160: ee1d a73d 42c7 55bc fa33 093d 83a2 4b3d
00000170: 4cdb 223c 1b00 c43c 5404 6fbb cd1d 413c
00000180: 2cac a8bd 6ddf 6f3d c3d6 973d 689c 1fbd
00000190: ad8a c8bc 2cd4 923c 2e80 9e3b 8c76 2bbd
000001a0: 1e25 3b3d 3bda 1cbd a43b 283d b497 d43c
000001b0: c77c 47bd f89c 6a3d 6105 d7ba 833e 84bd
000001c0: 78b2 0f3d 1a30 803d 5f99 3cbd 22a2 363c
000001d0: 7a67 01bd 9383 e0bc f383 653d 58a1 91bd
000001e0: 1b2b a53b 16df 273d 6a89 90bd dc09 d3b8
000001f0: b071 2f3d 8db6 c0bb 7417 5c3d 62e2 6a3d
00000200: dc92 4f3c dd00 25bd 8ff5 e63c fd01 cb3d
00000210: 749a cc3d e255 c23b 376a d63b fcee e93c
00000220: 9abd 123d 7806 553c 16df 7ebc c860 21bd
00000230: 44d4 f13c ec9e 0a3b fa29 553c 2ad4 a7bc
00000240: d7db d63c f70a 563b f541 f73c 01b9 2fbd
00000250: a939 02bd f956 c53c 37bc 783d 4533 423c
00000260: d400 dcbc 2547 403d 168e 633d 8ecb bfbd
00000270: 30bd ca3c 5684 223b 79a4 cd3c b91f 04bd
00000280: 651b 723a c057 873d 7f3e 423b 31a0 31bd
00000290: cb1c 7f3d e0e6 55bd 17fc 1b3c 71e3 6c3d
000002a0: beb9 23bc 203c ca3d 3d0b dfbc 6f6f a0bd
000002b0: 92e9 183d 418a 7e3d bec4 293d dadd 70bd
000002c0: 786a 153d 963b 12bd b988 f1bb 939d cf3c
000002d0: 1dc1 f1bb ee65 5b3d b00c 843d 096f ddbc
000002e0: b311 0e3c 2205 bf3c 38a0 54bd 47f7 babb
000002f0: d1dd b8bd 43d7 76bc b0c0 673d 6a45 d83c
00000300: e3a2 cfbb 5a15 6abd adcd 3d3d c948 6ebc
00000310: a959 e8bc 9e66 de3c 3fe9 edba 8525 413d
00000320: 5625 b8bd c8c5 8a3c c55d 813c 1314 ebbb
00000330: e8a7 503d fca1 233d dd33 a6bd 3aef 863c
00000340: d06d afba 84b1 d93b 1ed2 d23b 77ad 77bb
00000350: 0fc3 74bd 9c99 fcba 27db 6fbd 004f 023c
00000360: 5878 a9bc a0f2 0cbd 5078 343d 00c1 87bb
00000370: 4430 efbb 91b0 72bc 8f12 5f3b 4b39 50bd
00000380: ffdc 6c3d 786e 19b8 fa06 ddbc 0d81 ae3c
00000390: 3016 9ebd f662 3abc f56d 45bd c415 05bd
000003a0: 13d6 903b 7aad afbd 9788 76bd 5bfc c73c
000003b0: ca1c a43c bdc4 213d 018d 9cbc b079 9cbb
000003c0: a372 893c 5224 e6bc 58c2 503c c2bb 733c
000003d0: 5865 b33c 09de 303d 77ef a13d 6246 9fbd
000003e0: 8878 b6bc 4bac 16bc 0bd8 16bc c6b8 8abc
000003f0: 2006 d63b 0c6e 2f3d 6b47 473d f789 e0bc

arith.constant9 f4 [256]
1.0704557 1.0271473 1.0765321 1.0486269 1.0481435 0.84477574 1.1327919 0.99126
0.91332966 0.84383154 1.0187293 1.0885922 1.0832976 0.8643462 0.88105774 1.0616171
1.0056539 0.7613182 1.0340009 0.94869626 0.8505821 0.8338923 0.97793967 0.9870904
0.78296524 0.6637443 0.8706957 0.9582218 0.7229391 1.0855876 0.9372502 0.8821861
0.91438514 0.8756682 1.0734162 0.8335238 1.4017937 1.1453732 0.8426597 1.0940857
0.98819155 1.0615635 0.9285707 0.97172016 0.9096139 1.0738186 0.94252074 1.0996524
1.0568775 1.3056364 1.2403785 0.86586887 0.7498579 1.0732899 1.1817627 1.0407163
0.8814311 1.1835581 0.9378868 1.1353188 0.9119258 1.1319665 1.0084211 1.0245084
0.8199345 1.003979 0.8769987 1.0360153 1.0191324 0.9236885 0.7749136 0.9391057
0.8905522 0.87416923 0.99632394 0.9976504 0.9967781 1.0812051 0.76218104 0.9698278
1.1164058 0.909277 0.8026131 1.0090214 0.9086494 1.0831351 0.87981874 0.9913886
1.0019904 0.9519967 0.905903 1.0915147 1.1149153 1.1453785 1.1354195 1.0433555
1.1223146 0.8353563 0.86062187 0.8558244 1.1785488 0.8250118 0.80974966 0.755532
1.106355 0.9527857 0.8951011 0.94483644 1.2726821 0.9973487 1.1375782 0.8789453
1.3068815 0.7808419 1.0571828 1.2486268 0.8972754 1.1084657 0.8237681 1.2067796
0.7891203 0.97499925 0.7784609 0.94343686 1.0466529 1.0020055 1.0616069 1.0199223
1.0698305 0.9087605 0.87442404 1.0093513 0.9791963 0.8860663 1.0158631 0.9412863
1.1362386 0.79146713 1.1296228 0.8442432 0.7380745 1.1471406 0.9353901 1.2514728
1.0950782 0.89810365 0.9013899 0.9280823 0.975892 1.1458883 1.118473 0.96240324
0.80402166 0.7894411 1.1429621 0.98212475 0.7875437 0.96876377 1.0527959 0.84623003
1.1305073 1.1535494 1.1912844 1.2627132 0.9415406 0.91121167 0.9521535 0.94833577
1.0858696 1.2918787 0.8734103 0.8230794 0.8395854 0.92064184 0.9009865 0.98325664
0.87324536 1.166565 0.7674462 1.1602397 0.9581037 0.94255847 1.0796227 1.0045114
0.98333114 1.0510192 1.0267087 0.91123664 0.89692175 0.9131337 1.0841031 1.1390194
0.889505 1.0634986 0.8784006 1.0149266 0.9564556 1.2097365 1.1296878 0.73367393
0.8598899 1.0828961 1.000693 1.03602 0.927801 0.965652 1.1462606 0.889509
0.9062955 1.2474042 0.917733 0.8862331 0.88702494 0.6972437 0.7115543 0.8782507
1.0153794 0.8665915 0.84430397 1.153154 0.89557624 0.825664 0.983111 0.93071306
0.91442347 0.95762515 0.9285697 0.8486619 0.93000305 1.1497308 0.8456876 0.9319218
0.89793754 1.0289496 0.8623229 1.042241 0.94729453 1.0341629 1.1254244 1.0181295
0.85376555 0.8926213 0.9337039 0.8721911 0.8853575 0.9878632 0.88650614 0.7269957
0.9770218 1.266698 0.7722093 1.0954875 0.8538672 1.0279157 0.96218485 0.98153704
00000000: b104 893f 9079 833f cecb 893f 6839 863f
00000010: 9129 863f 3943 583f 53ff 903f 37c3 7d3f
00000020: f9cf 693f 5805 583f b965 823f fd56 8b3f
00000030: 7fa9 8a3f cb45 5d3f 008d 613f 12e3 873f
00000040: 44b9 803f c0e5 423f 245a 843f c2dd 723f
00000050: c0bf 593f f779 553f 415a 7a3f f5b1 7c3f
00000060: 6970 483f 25eb 293f eae5 5e3f 064e 753f
00000070: 8912 393f 89f4 8a3f a1ef 6f3f f3d6 613f
00000080: 2515 6a3f cb2b 603f b465 893f d161 553f
00000090: fa6d b33f 979b 923f 8cb8 573f 000b 8c3f
000000a0: 1ffa 7c3f 50e1 873f cfb6 6d3f a7c2 783f
000000b0: 75dc 683f e372 893f 0a49 713f 69c1 8c3f
000000c0: c347 873f 181f a73f b9c4 9e3f 95a9 5d3f
000000d0: b0f6 3f3f 9061 893f 0044 973f 3136 853f
000000e0: 78a5 613f d57e 973f 5919 703f 2052 913f
000000f0: f873 693f 47e4 903f f113 813f 1723 833f
00000100: 3ae7 513f 6282 803f fd82 603f 269c 843f
00000110: ee72 823f d976 6c3f bd60 463f 3b69 703f
00000120: 3bfb 633f 8ec9 5f3f 160f 7f3f 0466 7f3f
00000130: d92c 7f3f ee64 8a3f 4c1e 433f a246 783f
00000140: 63e6 8e3f 61c6 683f 0d78 4d3f 9d27 813f
00000150: 3f9d 683f 2ca4 8a3f cd3b 613f a5cb 7d3f
00000160: 3941 803f 0eb6 733f 42e9 673f c1b6 8b3f
00000170: 8bb5 8e3f c39b 923f 6d55 913f ac8c 853f
00000180: 01a8 8f3f e9d9 553f b751 5c3f 4f17 5b3f
00000190: b0da 963f f933 533f c14b 4f3f 8c6a 413f
000001a0: 0a9d 8d3f c3e9 733f 5825 653f cde0 713f
000001b0: 3fe7 a23f 3f52 7f3f 2a9c 913f 8f02 613f
000001c0: e547 a73f 41e5 473f c451 873f 01d3 9f3f
000001d0: d7b3 653f 34e2 8d3f 77e2 523f c177 9a3f
000001e0: ca03 4a3f 8d99 793f 3749 473f 1485 713f
000001f0: b9f8 853f b741 803f bce2 873f d08c 823f
00000200: 35f0 883f 87a4 683f 41da 5f3f 6c32 813f
00000210: 9cac 7a3f 3ed5 623f cd07 823f 24f8 703f
00000220: 4470 913f 979d 4a3f 7b97 903f 5320 583f
00000230: 73f2 3c3f 81d5 923f ba75 6f3f 4330 a03f
00000240: 862b 8c3f 1fea 653f 7dc1 663f cd96 6d3f
00000250: 0fd4 793f 78ac 923f 202a 8f3f 0f60 763f
00000260: 5dd4 4d3f d018 4a3f 954c 923f 876c 7b3f
00000270: 779c 493f e700 783f 04c2 863f 88a2 583f
00000280: 77b4 903f 82a7 933f 027c 983f 96a0 a13f
00000290: ce08 713f 2b45 693f 55c0 733f 22c6 723f
000002a0: c6fd 8a3f 485c a53f d197 5f3f 55b5 523f
000002b0: 12ef 563f 2faf 6b3f 0da7 663f b5b6 7b3f
000002c0: 028d 5f3f 0052 953f 5b77 443f bc82 943f
000002d0: 4946 753f 834b 713f 1431 8a3f d493 803f
000002e0: 97bb 7b3f cc87 863f 316b 833f ce46 693f
000002f0: aa9c 653f 21c3 693f e4c3 8a3f 63cb 913f
00000300: 9ab6 633f b920 883f ddde 603f 1de9 813f
00000310: 46da 743f a5d8 9a3f 9c99 903f 0ed2 3b3f
00000320: bf21 5c3f 579c 8a3f b516 803f 4e9c 843f
00000330: 5e84 6d3f f834 773f abb8 923f ddb6 633f
00000340: fb02 683f f1aa 9f3f 8df0 6a3f 2ce0 623f
00000350: 1114 633f 907e 323f 6c28 363f 0ad5 603f
00000360: f4f7 813f f1d8 5d3f 4e24 583f 8d9a 933f
00000370: 7c44 653f b75e 533f 2aad 7b3f 3643 6e3f
00000380: a817 6a3f ec26 753f beb6 6d3f e841 593f
00000390: ae14 6e3f 612a 933f fc7e 583f 6d92 6e3f
000003a0: 3cdf 653f 9fb4 833f 32c1 5c3f 2768 853f
000003b0: e581 723f 735f 843f e80d 903f 1152 823f
000003c0: 6190 5a3f d482 643f 3807 6f3f ea47 5f3f
000003d0: caa6 623f 9ae4 7c3f 11f2 623f 641c 3a3f
000003e0: 1a1e 7a3f 2923 a23f 82af 453f ef38 8c3f
000003f0: 0a97 5a3f be92 833f bf51 763f 0346 7b3f

arith.constant10 f4 [256]
-0.09838217 -0.1199123 -0.009390526 -0.17913212 -0.04297126 -0.20848256 0.111833 -0.13939314
-0.091122515 -0.2229245 -0.15470214 -0.053476077 -0.13955228 -0.08210282 -0.15288292 -0.025144905
-0.19158006 -0.2877676 -0.0034891265 -0.14471777 -0.23627797 -0.2964598 -0.14296348 -0.07664894
-0.2379012 -0.3405181 -0.23187225 -0.18672295 -0.18279962 -0.046652902 -0.07243032 -0.04745626
-0.17555565 -0.29349074 -0.08067431 -0.17818604 -0.012000919 -0.19281381 -0.27161923 -0.06706741
-0.037484515 0.051748566 -0.1437465 -0.10526428 -0.17085747 -0.071646996 -0.13392949 -0.12013903
0.056544665 -0.082119144 -0.1602902 -0.18414348 -0.23007265 -0.16146582 -0.02979332 -0.16584164
-0.16204503 0.030665508 -0.19649096 -0.2139483 -0.23139073 0.02538558 -0.14216894 0.045046195
-0.28737837 -0.13140863 -0.24257664 -0.07845862 -0.116522804 -0.123374924 -0.21121423 -0.11335244
-0.12712952 -0.21212761 -0.13140517 -0.04458501 -0.12685044 -0.10438045 -0.31766748 -0.023827305
-0.13279392 -0.10968414 -0.20266296 -0.127261 -0.19196641 -0.21288168 -0.14478202 -0.01610575
-0.12768745 -0.1805552 -0.17354839 -0.12819651 0.017768538 -0.056160893 -0.112807 -0.15816148
0.02435363 -0.18840061 -0.21487802 -0.03761741 -0.06445042 -0.14750496 -0.28238162 -0.23604575
-0.045650832 -0.15719362 -0.14729662 -0.105432756 -0.2032241 -0.1633197 -0.04136552 -0.19359194
-0.10236544 -0.12530415 -0.17671615 -0.1359069 -0.14727654 -0.07171109 -0.21335718 -0.1235911
-0.09279475 -0.051132564 -0.27650902 -0.16211796 -0.12679248 -0.079357155 -0.14031595 -0.1057263
-0.07697717 -0.15458903 -0.14328352 -0.056922097 -0.072683424 -0.10356236 -0.21252668 -0.113756835
-0.020879297 -0.27175787 -0.0019460326 -0.17874424 -0.25479496 0.14368978 -0.13513395 0.12494353
-0.08260969 -0.18744612 -0.1941252 -0.13388945 -0.12401741 -0.20612268 -0.04689405 -0.18613939
-0.25831276 -0.053593047 -0.022502271 -0.018056504 -0.14951931 -0.12273207 0.024530873 -0.1670959
-0.09149189 -0.17141676 -0.021649403 -0.029400704 -0.17953676 -0.21372685 -0.07024866 -0.032831203
-0.02937207 0.048497632 -0.1492076 -0.22008772 -0.19623688 -0.1769634 -0.050722722 -0.11094156
-0.24875553 -0.16749506 -0.2237734 -0.111866586 -0.13898025 -0.09482909 -0.16716301 -0.19133948
-0.15342818 -0.15793976 -0.03616307 -0.12119289 -0.054407198 -0.1527127 -0.1655421 -0.014528751
-0.091713816 -0.07942219 -0.15227477 0.053005263 -0.25589904 -0.20971723 -0.084973596 -0.32562342
-0.13280058 -0.13821977 -0.11189388 0.032635976 -0.14039996 -0.11505273 -0.08362373 -0.17224762
-0.12569796 -0.0043630595 -0.09841605 -0.1962312 -0.2764952 -0.3096922 -0.29573503 -0.13218854
0.19273308 -0.07448975 -0.085001014 0.2701523 -0.09300521 -0.26411614 -0.23713596 -0.046832606
-0.054869972 -0.077960655 -0.29174197 -0.22764973 -0.18075986 -0.14858952 -0.12226508 -0.14638506
-0.19966397 -0.07864589 -0.13411844 -0.1259586 -0.13621524 0.008125106 -0.13129257 -0.12706561
-0.24712558 -0.10411061 -0.11303606 -0.16858907 -0.14767683 -0.12237773 -0.05422922 -0.2605545
-0.19091767 -0.09927348 -0.21316406 -0.052298848 -0.25615677 -0.11379162 -0.08115248 0.110515445
00000000: 977c c9bd 9494 f5bd b9da 19bc 696e 37be
00000010: a202 30bd 747c 55be b308 e53d 13bd 0ebe
00000020: 719e babd 5246 64be 3d6a 1ebe bb09 5bbd
00000030: cbe6 0ebe 8625 a8bd 578d 1cbe b0fc cdbc
00000040: 902d 44be 4656 93be d4a9 64bb e530 14be
00000050: daf2 71be 94c9 97be 0565 12be 1ffa 9cbd
00000060: 5f9c 73be 6358 aebe eb6f 6dbe 4d34 3fbe
00000070: d32f 3bbe 1d17 3fbd 5956 94bd 7f61 42bd
00000080: dcc4 33be 6b44 96be 9338 a5bd 6776 36be
00000090: 819f 44bc fc70 45be ad11 8bbe a35a 89bd
000000a0: 5d89 19bd 4ef6 533d 4832 13be cd94 d7bd
000000b0: 43f5 2ebe a9bb 92bd d024 09be 740b f6bd
000000c0: 619b 673d 152e a8bd 1d23 24be 1c90 3cbe
000000d0: 2a98 6bbe 4c57 25be 1f11 f4bc 64d2 29be
000000e0: 22ef 25be 3b36 fb3c ed34 49be 4315 5bbe
000000f0: b1f1 6cbe 6bf5 cf3c bc94 11be 5c82 383d
00000100: 4223 93be fc8f 06be 0366 78be eaae a0bd
00000110: 82a3 eebd feab fcbd 8b48 58be 5325 e8bd
00000120: 3e2e 02be fb37 59be 148f 06be c59e 36bd
00000130: 15e5 01be 6bc5 d5bd 50a5 a2be 7b31 c3bc
00000140: 21fb 07be 14a2 e0bd e186 4fbe b550 02be
00000150: d892 44be a8fd 59be bd41 14be 35f0 83bc
00000160: 80c0 02be 76e3 38be abb6 31be f245 03be
00000170: 538f 913c f708 66bd 5b07 e7bd 15f5 21be
00000180: 4481 c73c 17ec 40be fc08 5cbe b714 1abd
00000190: 95fe 83bd 8a0b 17be 5394 90be fab5 71be
000001a0: 5efc 3abd 5df7 20be edd4 16be 21ed d7bd
000001b0: fa19 50be 483d 27be e46e 29bd f73c 46be
000001c0: f9a4 d1bd bb4f 00be 14f5 34be 2e2b 0bbe
000001d0: a9cf 16be 44dd 92bd 4e7a 5abe 551d fdbd
000001e0: 2d0b bebd 6170 51bd 9792 8dbe 4002 26be
000001f0: e3d5 01be 0186 a2bd fcae 0fbe 0887 d8bd
00000200: 35a6 9dbd 964c 1ebe eab8 12be 2527 69bd
00000210: 0cdb 94bd 8118 d4bd 98a0 59be 58f9 e8bd
00000220: 0f0b abbc d923 8bbe 0512 ffba bb08 37be
00000230: 7c74 82be 6a23 133e 8e60 0abe 65e2 ff3d
00000240: 452f a9bd e0f1 3fbe c2c8 46be 511a 09be
00000250: d7fc fdbd d311 53be fa13 40bd 539b 3ebe
00000260: 9241 84be 6284 5bbd af56 b8bc 3ceb 93bc
00000270: 971b 19be f45a fbbd f8f4 c83c 301b 2bbe
00000280: 1a60 bbbd e087 2fbe 175a b1bc bfd9 f0bc
00000290: 7cd8 37be 36db 5abe 88de 8fbd 037a 06bd
000002a0: b29d f0bc 74a5 463d e1c9 18be ad5e 61be
000002b0: 52f2 48be e535 35be a1c2 4fbd 5435 e3bd
000002c0: c5b9 7ebe d383 2bbe db24 65be 4f1a e5bd
000002d0: d750 0ebe c135 c2bd c82c 2bbe 7fee 43be
000002e0: 471c 1dbe f6ba 21be ba1f 14bd fa33 f8bd
000002f0: 15da 5ebd b860 1cbe de83 29be 000a 6ebc
00000300: 74d4 bbbd 1aa8 a2bd ebed 1bbe 0c1c 593d
00000310: 3305 83be 1dc0 56be a306 aebd 1db8 a6be
00000320: e0fc 07be 7c89 0dbe 9e28 e5bd 4dad 053d
00000330: 02c5 0fbe c4a0 ebbd eb42 abbd ae61 30be
00000340: f7b6 00be fff7 8ebb 5b8e c9bd d5f0 48be
00000350: c790 8dbe fa8f 9ebe 956a 97be 6f5c 07be
00000360: d25b 453e 158e 98bd 0315 aebd 6751 8a3e
00000370: 8479 bebd 3b3a 87be c5d3 72be 8cd3 3fbd
00000380: 56bf 60bd d6a9 9fbd 345f 95be 031d 69be
00000390: 1d19 39be da27 18be 1d66 fabd f7e5 15be
000003a0: b674 4cbe 1911 a1bd 5856 09be 4bfb 00be
000003b0: 027c 0bbe 2a1f 053c 8f71 06be 7d1d 02be
000003c0: 7d0e 7dbe f237 d5bd 737f e7bd 9da2 2cbe
000003d0: 9838 17be 2da1 fabd 751f 5ebd 6667 85be
000003e0: ec7f 43be e54f cbbd ae47 5abe 5137 56bd
000003f0: fb26 83be 950b e9bd 4533 a6bd ec55 e23d

arith.constant11 f4 [128]
-0.08442636 -0.26234755 -0.00533507 -0.12551413 -0.13405015 -0.37408537 -0.19636738 0.035273913
-0.012952686 -0.20025174 -0.26784167 -0.0144899525 -0.26151323 -0.07666319 -0.14087325 -0.14489914
-0.3508827 -0.2452843 -0.17309922 -0.14652282 -0.30470178 -0.23457842 -0.40470615 -0.29657277
-0.32778275 -0.24777688 -0.37274995 -0.2581571 -0.22871673 -0.1889784 -0.118324704 -0.09282609
-0.22486243 -0.1397314 -0.14358626 -0.16595843 -0.23880246 -0.2682297 -0.22007369 -0.21080813
-0.3411515 -0.072646424 -0.2762936 -0.26284295 -0.21544124 0.0034501967 -0.24301235 -0.08306655
-0.13221693 -0.1910512 -0.025941597 -0.40820748 -0.018986005 -0.23708297 -0.23529685 -0.12321977
-0.16794415 -0.14894007 -0.2793061 -0.058361843 -0.30223042 -0.31510812 -0.35914895 -0.2498388
-0.3355205 -0.21632342 -0.03565053 -0.20555021 -0.13135006 -0.070821784 -0.11301467 -0.23731624
-0.051938213 -0.25839722 -0.10354202 -0.26704153 -0.23820512 -0.22828162 -0.06464506 0.040731348
-0.29391193 -0.32501575 -0.122226626 -0.13418038 -0.36342892 -0.06778515 -0.22667597 -0.23069398
-0.18025367 -0.29922074 -0.31353727 -0.1778313 -0.18660028 -0.25542134 -0.2434423 -0.19442727
-0.2118532 -0.34795904 -0.20728523 -0.10753399 -0.24180514 -0.22064124 -0.38191426 -0.26194757
-0.09204296 -0.18582243 -0.19365738 -0.2915387 -0.45021155 -0.4735291 -0.07468824 -0.18328169
-0.25958636 -0.18139437 -0.12371419 -0.2280208 -0.33450526 -0.34083644 -0.37804726 -0.23914233
-0.047464702 -0.2863507 -0.1687145 -0.28977174 0.038883228 -0.25764367 -0.30241355 -0.059483673
00000000: bae7 acbd 6b52 86be d0d1 aebb c786 00be
00000010: 7144 09be 1e88 bfbe 8814 49be 617b 103d
00000020: 8137 54bc cb0e 4dbe 8b22 89be 4467 6dbc
00000030: 10e5 85be 9701 9dbd 1441 10be 7160 14be
00000040: e6a6 b3be cf2b 7bbe ec40 31be 140a 16be
00000050: df01 9cbe 5335 70be a535 cfbe 63d8 97be
00000060: 24d3 a7be 39b9 7dbe 15d9 bebe 2b2d 84be
00000070: b834 6abe 8e83 41be 3954 f2bd 9b1b bebd
00000080: 5642 66be c015 0fbe 4708 13be 02f1 29be
00000090: a288 74be 6755 89be ff5a 61be 16de 57be
000000a0: 69ab aebe a6c7 94bd 5b76 8dbe 5a93 86be
000000b0: a19c 5cbe b21c 623b 3bd8 78be cc1e aabd
000000c0: e063 07be eda2 43be 7983 d4bc 9200 d1be
000000d0: 8a88 9bbc e1c5 72be a8f1 70be a65a fcbd
000000e0: 8df9 2bbe bf83 18be 3601 8fbe d40c 6fbd
000000f0: f2bd 9abe da55 a1be 5fe2 b7be bed5 7fbe
00000100: 58c9 abbe e383 5dbe 4a06 12bd c17b 52be
00000110: a180 06be 030b 91bd 3c74 e7bd 0703 73be
00000120: 2abd 54bd a44c 84be d70d d4bd abb9 88be
00000130: 0bec 73be a8c2 69be a164 84bd ead5 263d
00000140: a07b 96be 7768 a6be f451 fabd 9566 09be
00000150: 5b13 babe f1d2 8abd bf1d 68be 0b3b 6cbe
00000160: 6b94 38be 7633 99be f587 a0be 6919 36be
00000170: 2514 3fbe 96c6 82be f048 79be f117 47be
00000180: 0cf0 58be b027 b2be 9442 54be c83a dcbd
00000190: c49b 77be c7ef 61be 448a c3be fe1d 86be
000001a0: 0581 bcbd 3c48 3ebe 1f4e 46be 8f44 95be
000001b0: 2182 e6be 6872 f2be 26f6 98bd 32ae 3bbe
000001c0: 81e8 84be 72bf 39be de5d fdbd 497e 69be
000001d0: 4644 abbe 1d82 aebe 698f c1be bae1 74be
000001e0: 596a 42bd 8f9c 92be 7ec3 2cbe f65c 94be
000001f0: 0544 1f3d dfe9 83be f3d5 9abe 27a5 73bd

arith.constant12 f4 [128]
-0.011556857 -0.049075972 -0.043033008 0.016232066 0.044466496 -0.019230755 -0.029518085 0.06634204
-0.003175484 -0.005373051 0.020308632 -0.06935346 -0.039655473 -0.029584356 0.029219333 0.067883976
0.049994104 -0.057954464 -0.032140955 0.021644656 -0.047513485 0.039032616 -0.01950528 -0.0029792185
-0.0045120353 -0.048450965 0.0009625565 -0.03840298 0.05686632 -0.006704162 -0.015301996 0.0012329085
0.071464695 -0.03782245 -0.0588565 0.037495743 -0.0063121673 -0.010390779 -0.02383736 -0.008803528
-0.027991945 -0.029403849 -0.045463998 0.017891346 0.007445027 0.007136516 -0.023679852 -0.030043432
0.037666928 -0.0360531 0.02084638 -0.012099046 -0.014797938 -0.05030568 0.00083386945 -0.005533273
0.027461326 0.035579577 -0.022543328 0.023666725 0.0247266 0.04062431 -0.037694924 0.0037116578
0.03695013 0.0555161 -0.04009098 0.031291027 -0.03586245 -0.031446435 -0.08692187 -0.044182375
0.017704125 -0.045186855 0.059552167 0.037868317 -0.034031738 0.004845949 0.015505611 -0.063643485
0.051171113 0.04235742 -0.010711495 0.021325232 -0.0128097795 -0.00532431 -0.024393816 -0.00764126
0.00077275693 -0.00538976 0.031517923 0.016865153 -0.0022775366 0.030517278 -0.061967403 -0.0070026494
-0.015701324 0.013514482 0.066521525 0.04143112 -0.03900776 -0.01881616 -0.0020492326 -0.013362617
0.024262022 -0.033530567 -0.017807694 -0.00600296 0.057118084 -0.025766738 -0.0716512 -0.01814462
-0.046292216 -0.024351772 0.004438608 -0.04090169 0.0091721425 -0.02117681 0.02729092 0.015034069
0.027385555 0.026065998 -0.06816531 0.024103273 0.0036438757 -0.044375833 0.05051411 0.11102477
00000000: f958 3dbc e303 49bd 6143 30bd 1cf9 843c
00000010: 8022 363d d189 9dbc e9cf f1bc 56de 873d
00000020: c81b 50bb 6b10 b0bb 4a5e a63c 3009 8ebd
00000030: c76d 22bd e45a f2bc 625d ef3c c106 8b3d
00000040: 9ec6 4c3d a961 6dbd 3ca6 03bd 2250 b13c
00000050: 809d 42bd aae0 1f3d 89c9 9fbc fe3e 43bb
00000060: b2d9 93bb 8574 46bd 1354 7c3a 714c 1dbd
00000070: a9ec 683d 96ae dbbb 39b5 7abc 8b99 a13a
00000080: 155c 923d b7eb 1abd 8313 71bd 2395 193d
00000090: 4cd6 cebb 163e 2abc 9146 c3bc ac3c 10bc
000000a0: 5d4f e5bc 57e0 f0bc 7538 3abd df90 923c
000000b0: 6af5 f33b 6fd9 e93b 40fc c1bc a51d f6bc
000000c0: a348 1a3d 6aac 13bd 07c6 aa3c 143b 46bc
000000d0: 0d73 72bc 540d 4ebd 0898 5a3a 7550 b5bb
000000e0: 93f6 e03c e4bb 113d c9ac b8bc b8e0 c13c
000000f0: 708f ca3c ad65 263d fe65 1abd 493f 733b
00000100: 0559 173d da64 633d 7036 24bd 052b 003d
00000110: 81e4 12bd facd 00bd 1804 b2bd 94f8 34bd
00000120: 3e08 913c da15 39bd f9ec 733d cf1b 1b3d
00000130: dd64 0bbd c4ca 9e3b 3f0b 7e3c 8457 82bd
00000140: cd98 513d f97e 2d3d 447f 2fbc 41b2 ae3c
00000150: 1ce0 51bc 8d77 aebb 8ad5 c7bc 8963 fabb
00000160: d792 4a3a 959c b0bb f018 013d ca28 8a3c
00000170: b942 15bb 5fff f93c 88d1 7dbd 7b76 e5bb
00000180: 10a0 80bc d96b 5d3c 703c 883d aeb3 293d
00000190: 9ac6 1fbd 5924 9abc 6b4c 06bb e1ee 5abc
000001a0: 26c1 c63c 5957 09bd 71e1 91bc 7ab4 c4bb
000001b0: a7f4 693d c414 d3bc ddbd 92bd 07a4 94bc
000001c0: e89c 3dbd 5e7d c7bc be71 913b 8888 27bd
000001d0: c146 163c fd7a adbc 3591 df3c 7551 763c
000001e0: ac57 e03c 5c88 d53c 419a 8bbd 3a74 c53c
000001f0: 17ce 6e3b 6fc3 35bd e2e7 4e3d f460 e33d

arith.constant13 f4 [128]
1.0701976 0.6334265 1.03521 0.8418748 0.8885089 0.6507907 0.9186869 0.9576992
1.0375721 1.076953 0.75598645 1.1732129 0.79297936 0.89640105 0.92781353 0.8690162
0.81634927 0.8500898 0.8977085 0.84842974 0.72918826 0.76094306 0.7270366 0.8100437
0.7658977 0.6879 0.7568367 0.8228262 0.95252585 0.84660834 0.84350085 1.0717025
0.8101839 1.0805446 0.8766593 0.8998994 0.7273425 0.8280954 0.74788946 0.7695287
0.7576445 0.87212545 0.6876676 0.75884867 0.83970475 1.0409361 0.8617863 0.95846033
0.83142537 0.8320315 1.0059844 0.7230542 0.9204182 0.92202604 0.8515835 0.93928087
0.8198082 0.9092736 0.6917718 0.94357985 0.74425054 0.79142094 0.6480347 0.8310748
0.8764506 0.9183586 0.9674226 0.8405766 0.85417986 0.9324164 1.0538114 0.7885923
1.15938 0.93861043 0.8844098 0.7884238 0.9566025 0.7839196 0.99115753 1.0859572
0.7514688 0.787615 0.93820846 0.95447445 0.7411584 0.91998965 0.83900964 0.76198876
0.83844554 0.9325563 0.7741835 0.8648932 0.8638121 0.8694643 0.78846365 0.6986959
0.8386684 0.6360072 0.78005224 0.8543955 0.8075197 0.878842 0.6335273 0.6536255
0.9998265 0.7843838 0.8498812 0.8227418 0.64672565 0.64205664 0.88137573 1.0243448
0.77189595 0.8087109 0.8360571 0.82266074 0.6809994 0.7061703 0.62586516 0.8287715
0.90846956 0.7238803 0.98214483 0.8570019 1.3109766 0.8935144 0.71603656 0.94752526
00000000: 3cfc 883f 3d28 223f c381 843f 1b85 573f
00000010: 5275 633f 389a 263f 112f 6b3f c62b 753f
00000020: 2acf 843f 99d9 893f 5488 413f d72b 963f
00000030: b200 4b3f 8a7a 653f 3085 6d3f d877 5e3f
00000040: 44fc 503f 7c9f 593f 39d0 653f b132 593f
00000050: 15ac 3a3f 2acd 423f 121f 3a3f 065f 4f3f
00000060: df11 443f 371a 303f 0dc0 413f bda4 523f
00000070: bcd8 733f 53bb 583f acef 573f 8c2d 893f
00000080: 3668 4f3f 494f 8a3f be6c 603f cf5f 663f
00000090: 1e33 3a3f 0ffe 533f af75 3f3f d5ff 443f
000000a0: fdf4 413f 9d43 5f3f fc0a 303f e843 423f
000000b0: e4f6 563f 653d 853f 079e 5c3f a85d 753f
000000c0: 4bd8 543f 0400 553f 19c4 803f 141a 393f
000000d0: 87a0 6b3f e609 6c3f 6001 5a3f b674 703f
000000e0: f3de 513f 28c6 683f f517 313f 738e 713f
000000f0: 3487 3e3f 909a 4a3f 9ae5 253f 51c1 543f
00000100: 115f 603f 8d19 6b3f 02a9 773f 0730 573f
00000110: 88ab 5a3f d7b2 6e3f 4be3 863f 2fe1 493f
00000120: 9066 943f c648 703f ae68 623f 24d6 493f
00000130: e7e3 743f f4ae 483f 80bc 7d3f a500 8b3f
00000140: 4260 403f 23a1 493f 6e2e 703f 7058 743f
00000150: 8fbc 3d3f 7184 6b3f 56c9 563f b211 433f
00000160: 5ea4 563f 02bc 6e3f e430 463f a469 5d3f
00000170: ca22 5d3f 3695 5e3f c1d8 493f bcdd 323f
00000180: f9b2 563f 5ed1 223f 81b1 473f aab9 5a3f
00000190: 9cb9 4e3f cafb 603f d82e 223f 0054 273f
000001a0: a1f4 7f3f 60cd 483f d091 593f 359f 523f
000001b0: d08f 253f d35d 243f d7a1 613f bb1d 833f
000001c0: f99a 453f ad07 4f3f d707 563f e599 523f
000001d0: fa55 2e3f 94c7 343f b338 203f 5e2a 543f
000001e0: 7691 683f 3850 393f d86d 7b3f 7a64 5b3f
000001f0: 15ce a73f 5cbd 643f 2c4e 373f 0491 723f

arith.constant14 f4 [128]
-0.13389784 -0.37866187 -0.024153378 -0.18546346 -0.18202886 -0.45122427 -0.11510235 -0.10670995
-0.1420048 -0.07344749 -0.26603135 0.028578077 -0.26042527 -0.18166633 -0.10022951 -0.18852219
-0.35334042 -0.26413232 -0.17609271 -0.17839657 -0.37608498 -0.27371815 -0.4114388 -0.408112
-0.38439247 -0.38564456 -0.34924567 -0.3903861 -0.23343302 -0.20963567 -0.18283653 -0.05726636
-0.29488647 -0.11582257 -0.22632906 -0.16213477 -0.2843914 -0.21968271 -0.2276876 -0.19134934
-0.3067171 -0.17192592 -0.32672778 -0.33889854 -0.27708748 -0.1378033 -0.21853907 -0.16808395
-0.19782881 -0.28545952 -0.057048377 -0.42610478 -0.08752392 -0.16338718 -0.21566242 -0.19830891
-0.24398056 -0.18497153 -0.2908405 -0.09474816 -0.36960277 -0.39729354 -0.4289878 -0.24601084
-0.3317391 -0.16368203 -0.0649161 -0.35864457 -0.25004506 -0.09114865 -0.11156758 -0.30934608
-0.12643154 -0.25868687 -0.16316709 -0.32834756 -0.15768304 -0.29890263 -0.12058749 -0.041228227
-0.31328848 -0.2570575 -0.13397008 -0.21834925 -0.39960346 -0.058082696 -0.2129038 -0.25450006
-0.18765959 -0.18662739 -0.33856744 -0.24948812 -0.20118485 -0.25509697 -0.34896493 -0.18125881
-0.28336942 -0.37222594 -0.25248405 -0.17672266 -0.32387012 -0.2701594 -0.45032302 -0.30819917
-0.03462083 -0.20866345 -0.22779837 -0.27785844 -0.49146572 -0.46864313 -0.058739055 -0.10147383
-0.26726383 -0.21177365 -0.14153801 -0.23839058 -0.4196788 -0.3906373 -0.3728043 -0.2585536
-0.17431045 -0.33159935 -0.2427106 -0.26179418 0.09644197 -0.28806785 -0.43010423 -0.1365478
00000000: 841c 09be f8df c1be 4edd c5bc 22ea 3dbe
00000010: c665 3abe de06 e7be c8ba ebbd bf8a dabd
00000020: b569 11be a36b 96bd 4335 88be 921c ea3c
00000030: 7656 85be bd06 3abe 2145 cdbd f60b 41be
00000040: 09e9 b4be 5a3c 87be a651 34be 97ad 36be
00000050: 368e c0be c924 8cbe 1ba8 d2be 0ef4 d0be
00000060: 17cf c4be 3473 c5be 54d0 b2be b0e0 c7be
00000070: 1109 6fbe bcaa 56be 8039 3bbe 2190 6abd
00000080: 5cfb 96be 6234 edbd cec2 67be a806 26be
00000090: c09b 91be 81f4 60be f026 69be 15f1 43be
000000a0: 060a 9dbe 590d 30be dd48 a7be 1c84 adbe
000000b0: 69de 8dbe 4f1c 0dbe b5c8 5fbe 331e 2cbe
000000c0: a393 4abe c027 92be 8fab 69bd 682a dabe
000000d0: be3f b3bd f84e 27be 9cd6 5cbe 7e11 4bbe
000000e0: 0ad6 79be 2d69 3dbe 0ce9 94be 530b c2bd
000000f0: 933c bdbe 0f6a cbbe 4aa4 dbbe 44ea 7bbe
00000100: b5d9 a9be 439c 27be bbf2 84bd 43a0 b7be
00000110: e805 80be 25ac babd 8b7d e4bd 9c62 9ebe
00000120: 4577 01be 9b72 84be 4615 27be 2c1d a8be
00000130: aa77 21be c409 99be 93f6 f6bd eede 28bd
00000140: 5967 a0be 0a9d 83be 742f 09be f296 5fbe
00000150: d398 ccbe 1fe8 6dbd 7403 5abe d54d 82be
00000160: d629 40be 401b 3fbe b658 adbe d079 7fbe
00000170: 6703 4ebe 129c 82be 88ab b2be e99b 39be
00000180: cc15 91be 6694 bebe 9745 81be c9f6 34be
00000190: 4ed2 a5be 5552 8abe bd90 e6be 48cc 9dbe
000001a0: 92ce 0dbd dfab 55be fa43 69be 7643 8ebe
000001b0: 65a1 fbbe fef1 efbe 5d98 70bd 83d1 cfbd
000001c0: ced6 88be 31db 58be 57ef 10be a91c 74be
000001d0: 24e0 d6be 9d01 c8be 35e0 bebe 2361 84be
000001e0: 707e 32be 64c7 a9be 2189 78be e309 86be
000001f0: 5e83 c53d a17d 93be 9f36 dcbe 30d3 0bbe

sequential/dense_1/BiasAdd/ReadVariableOp f4 [64]
-0.0041534 -0.01697847 -0.11980836 -0.035894312 0.024676466 -0.1554166 -0.07637428 -0.006446581
-0.012681228 -0.15686505 -0.003583594 -0.008425321 -0.0044581695 -0.026032152 0.05130547 0.0063707917
-0.04629919 0.00754719 0.04308367 0.0060909116 -0.13842073 -0.08268661 0.03721629 0.0028788208
0.040365767 -0.019755106 0.0339874 -0.035389546 -0.012235493 -0.039305672 -0.0042263693 0.0078082383
0.012644534 0.00526364 0.022460714 -0.079682186 -0.0065392717 -0.009003783 -0.049966555 -0.091441475
-0.074201316 -0.07995367 0.03676689 0.0012271168 0.013970477 -0.12972829 -0.0385621 -0.02818605
-0.007443607 -0.011523247 -0.026011817 -0.07255573 0.008256316 0.06359823 -0.00507742 -0.101001404
0.0051137805 -0.009002215 0.024216497 0.04214395 -0.034729816 -0.034892716 -0.033304293 0.017485984
00000000: 3f19 88bb 6f16 8bbc 165e f5bd ea05 13bd
00000010: 4d26 ca3c 8725 1fbe 1e6a 9cbd d73d d3bb
00000020: edc4 4fbc 3ba1 20be bbda 6abb 5c0a 0abc
00000030: d615 92bb 6141 d5bc af25 523d 13c2 d03b
00000040: 38a4 3dbd 6b4e f73b 8178 303d 4596 c73b
00000050: 2abe 0dbe 9957 a9bd 1c70 183d 99aa 3c3b
00000060: 9356 253d 76d5 a1bc 5f36 0b3d a1f4 10bd
00000070: 6177 48bc fcfe 20bd 5b7d 8abb 40dc ff3b
00000080: 052b 4f3c 9d7a ac3b 88ff b73c 6a30 a3bd
00000090: 6347 d6bb 9a84 13bc bba9 4cbd ab45 bbbd
000000a0: dcf6 97bd c0be a3bd e198 163d 35d7 a03a
000000b0: 6de4 643c 7ed7 04be 4bf3 1dbd 6ee6 e6bc
000000c0: 80e9 f3bb 00cc 3cbc bc16 d5bc 1998 94bd
000000d0: 8045 073c ca3f 823d 7c60 a6bb d3d9 cebd
000000e0: 8091 a73b 077e 13bc ad61 c63c 229f 2c3d
000000f0: da40 0ebd aaeb 0ebd 156a 08bd c43e 8f3c

sequential/dense_2/BiasAdd/ReadVariableOp f4 [64]
-0.06721355 0.07876636 -0.0028425178 -0.13215029 0.09912584 -0.012649974 -0.008722385 0.018352617
0.067535535 -0.0143980235 0.0070243864 -0.07290212 0.032112803 0.073666364 0.04393638 0.01892461
0.03101791 -0.0043259314 0.010500272 -0.03573399 -0.01830429 -0.07874148 -0.00070879946 -0.09942791
-0.048556093 0.019585866 -0.05792621 0.066482864 -0.0076406477 0.07323878 0.018931113 -0.036696408
-0.0094457185 0.0032696757 0.050937682 0.11596218 0.008342174 -0.041177165 0.03561148 0.023579247
0.0004880119 0.037098147 -0.050150197 0.06364774 -0.030056275 0.08998885 0.06769853 -0.06930542
-0.05064166 0.0011968303 -0.031516965 0.03395474 -0.026359793 0.017103422 -0.069216885 0.03466809
-0.033427414 -0.029589182 -0.03733573 -0.08352069 -0.12968725 -0.035465788 -0.10474218 -0.06012893
00000000: 42a7 89bd 4250 a13d 8949 3abb 6852 07be
00000010: 7d02 cb3d d641 4fbc 56e8 0ebc 3a58 963c
00000020: 1250 8a3d b0e5 6bbc d32c e63b b54d 95bd
00000030: b788 033d 64de 963d a2f6 333d c907 9b3c
00000040: 4619 fe3c 8bc0 8dbb 5509 2c3c ce5d 12bd
00000050: e1f2 95bc 3743 a1bd bace 39ba dca0 cbbd
00000060: c1e2 46bd 8a72 a03c 0944 6dbd 2b28 883d
00000070: 665e fabb 37fe 953d 6c15 9b3c f94e 16bd
00000080: 37c2 1abc 0e48 563b 08a4 503d 947d ed3d
00000090: 9dad 083c 63a9 28bd 58dd 113d 4429 c13c
000000a0: d9db ff39 3af4 173d 4b6a 4dbd bf59 823d
000000b0: 9438 f6bc 134c b83d 87a5 8a3d 00f0 8dbd
000000c0: a16d 4fbd f6de 9c3a ef17 01bd 2014 0b3d
000000d0: 7ef0 d7bc 7a1c 8c3c 95c1 8dbd 2100 0e3d
000000e0: 2feb 08bd 0365 f2bc 5aed 18bd e50c abbd
000000f0: bccc 04be 9344 11bd 1183 d6bd c149 76bd

sequential/dense_3/BiasAdd/ReadVariableOp f4 [25]
-0.06379498 -0.052552596 0.07361729 -0.01975689 -0.0031341864 0.07686318 0.11263763 -0.010673473
-0.059349317 0.06146303 -0.045737535 -0.043787822 -0.06193986 0.00090185844 -0.1229137 -0.038254965
-0.044538654 0.0694165 0.032941934 -0.13978016 -0.0502872 0.04150408 0.07919676 0.043240502
-0.07487587
00000000: f1a6 82bd 6441 57bd a9c4 963d 34d9 a1bc
00000010: ec66 4dbb 716a 9d3d 8fae e63d cadf 2ebc
00000020: 4518 73bd a8c0 7b3d 4857 3bbd dc5a 33bd
00000030: a7b4 7dbd b26a 6c3a 2eba fbbd 3db1 1cbd
00000040: 2a6e 36bd 3d2a 8e3d 1fee 063d 8822 0fbe
00000050: f3f9 4dbd 2f00 2a3d e931 a23d f41c 313d
00000060: 8558 99bd
